…
        hidden_size: 768
        img_hidden_size: 512
        img_num_head: 8
        img_size: 336
        learning_rate: 0.0006
        lr_decay_iters: 200000
        max_iters: 250000
        min_lr: 6e-05
        num_epoch: 6
        num_heads: 12
        num_layers: 12
        res_block: <class 'resnet.BasicBlock'>
        res_channels: [64, 64, 128, 256, 512]
        res_layers: [2, 2, 2, 2]
        sequence_length: 25
        spacial_dim: 11
        vocab_size: 32000
        weight_decay: 0.1

CLIP(
  (image_encoder): ResNet(
    (conv1): Conv_Batch_Active(
      (block): Sequential(
        (0): Conv2d(3, 64, kernel_size=(7, 7), stride=(2, 2), padding=(3, 3))
        (1): BatchNorm2d(64, eps=1e-05, momentum=0.1, affine=True, track_running_stats=True)
        (2): ReLU(inplace=True)
      )
    )
    (conv2): Sequential(
      (0): MaxPool2d(kernel_size=3, stride=2, padding=1, dilation=1, ceil_mode=False)
      (1): BasicBlock(
        (block): Sequential(
          (0): Conv_Batch_Active(
            (block): Sequential(
              (0): Conv2d(64, 64, kernel_size=(3, 3), stride=(1, 1), padding=(1, 1))
              (1): BatchNorm2d(64, eps=1e-05, momentum=0.1, affine=True, track_running_stats=True)
              (2): ReLU(inplace=True)
            )
          )
          (1): Conv_Batch_Active(
            (block): Sequential(
              (0): Conv2d(64, 64, kernel_size=(3, 3), stride=(1, 1), padding=(1, 1))
              (1): BatchNorm2d(64, eps=1e-05, momentum=0.1, affine=True, track_running_stats=True)
              (2): Identity()
            )
          )
        )
        (shortcut): Identity()
      )
      (2): BasicBlock(
        (block): Sequential(
          (0): Conv_Batch_Active(
            (block): Sequential(
              (0): Conv2d(64, 64, kernel_size=(3, 3), stride=(1, 1), padding=(1, 1))
              (1): BatchNorm2d(64, eps=1e-05, momentum=0.1, affine=True, track_running_stats=True)
              (2): ReLU(inplace=True)
            )
          )
          (1): Conv_Batch_Active(
            (block): Sequential(
              (0): Conv2d(64, 64, kernel_size=(3, 3), stride=(1, 1), padding=(1, 1))
              (1): BatchNorm2d(64, eps=1e-05, momentum=0.1, affine=True, track_running_stats=True)
              (2): Identity()
            )
          )
        )
        (shortcut): Identity()
      )
    )
    (conv3): Sequential(
      (0): BasicBlock(
        (block): Sequential(
          (0): Conv_Batch_Active(
            (block): Sequential(
              (0): Conv2d(64, 128, kernel_size=(3, 3), stride=(2, 2), padding=(1, 1))
              (1): BatchNorm2d(128, eps=1e-05, momentum=0.1, affine=True, track_running_stats=True)
              (2): ReLU(inplace=True)
            )
          )
          (1): Conv_Batch_Active(
            (block): Sequential(
              (0): Conv2d(128, 128, kernel_size=(3, 3), stride=(1, 1), padding=(1, 1))
              (1): BatchNorm2d(128, eps=1e-05, momentum=0.1, affine=True, track_running_stats=True)
              (2): Identity()
            )
          )
        )
        (shortcut): Conv_Batch_Active(
          (block): Sequential(
            (0): Conv2d(64, 128, kernel_size=(1, 1), stride=(2, 2))
            (1): BatchNorm2d(128, eps=1e-05, momentum=0.1, affine=True, track_running_stats=True)
            (2): Identity()
          )
        )
      )
      (1): BasicBlock(
        (block): Sequential(
          (0): Conv_Batch_Active(
            (block): Sequential(
              (0): Conv2d(128, 128, kernel_size=(3, 3), stride=(1, 1), padding=(1, 1))
              (1): BatchNorm2d(128, eps=1e-05, momentum=0.1, affine=True, track_running_stats=True)
              (2): ReLU(inplace=True)
            )
          )
          (1): Conv_Batch_Active(
            (block): Sequential(
              (0): Conv2d(128, 128, kernel_size=(3, 3), stride=(1, 1), padding=(1, 1))
              (1): BatchNorm2d(128, eps=1e-05, momentum=0.1, affine=True, track_running_stats=True)
              (2): Identity()
            )
          )
        )
        (shortcut): Identity()
      )
    )
    (conv4): Sequential(
      (0): BasicBlock(
        (block): Sequential(
          (0): Conv_Batch_Active(
            (block): Sequential(
              (0): Conv2d(128, 256, kernel_size=(3, 3), stride=(2, 2), padding=(1, 1))
              (1): BatchNorm2d(256, eps=1e-05, momentum=0.1, affine=True, track_running_stats=True)
              (2): ReLU(inplace=True)
            )
          )
          (1): Conv_Batch_Active(
            (block): Sequential(
              (0): Conv2d(256, 256, kernel_size=(3, 3), stride=(1, 1), padding=(1, 1))
              (1): BatchNorm2d(256, eps=1e-05, momentum=0.1, affine=True, track_running_stats=True)
              (2): Identity()
            )
          )
        )
        (shortcut): Conv_Batch_Active(
          (block): Sequential(
            (0): Conv2d(128, 256, kernel_size=(1, 1), stride=(2, 2))
            (1): BatchNorm2d(256, eps=1e-05, momentum=0.1, affine=True, track_running_stats=True)
            (2): Identity()
          )
        )
      )
      (1): BasicBlock(
        (block): Sequential(
          (0): Conv_Batch_Active(
            (block): Sequential(
              (0): Conv2d(256, 256, kernel_size=(3, 3), stride=(1, 1), padding=(1, 1))
              (1): BatchNorm2d(256, eps=1e-05, momentum=0.1, affine=True, track_running_stats=True)
              (2): ReLU(inplace=True)
            )
          )
          (1): Conv_Batch_Active(
            (block): Sequential(
              (0): Conv2d(256, 256, kernel_size=(3, 3), stride=(1, 1), padding=(1, 1))
              (1): BatchNorm2d(256, eps=1e-05, momentum=0.1, affine=True, track_running_stats=True)
              (2): Identity()
            )
          )
        )
        (shortcut): Identity()
      )
    )
    (conv5): Sequential(
      (0): BasicBlock(
        (block): Sequential(
          (0): Conv_Batch_Active(
            (block): Sequential(
              (0): Conv2d(256, 512, kernel_size=(3, 3), stride=(2, 2), padding=(1, 1))
              (1): BatchNorm2d(512, eps=1e-05, momentum=0.1, affine=True, track_running_stats=True)
              (2): ReLU(inplace=True)
            )
          )
          (1): Conv_Batch_Active(
            (block): Sequential(
              (0): Conv2d(512, 512, kernel_size=(3, 3), stride=(1, 1), padding=(1, 1))
              (1): BatchNorm2d(512, eps=1e-05, momentum=0.1, affine=True, track_running_stats=True)
              (2): Identity()
            )
          )
        )
        (shortcut): Conv_Batch_Active(
          (block): Sequential(
            (0): Conv2d(256, 512, kernel_size=(1, 1), stride=(2, 2))
            (1): BatchNorm2d(512, eps=1e-05, momentum=0.1, affine=True, track_running_stats=True)
            (2): Identity()
          )
        )
      )
      (1): BasicBlock(
        (block): Sequential(
          (0): Conv_Batch_Active(
            (block): Sequential(
              (0): Conv2d(512, 512, kernel_size=(3, 3), stride=(1, 1), padding=(1, 1))
              (1): BatchNorm2d(512, eps=1e-05, momentum=0.1, affine=True, track_running_stats=True)
              (2): ReLU(inplace=True)
            )
          )
          (1): Conv_Batch_Active(
            (block): Sequential(
              (0): Conv2d(512, 512, kernel_size=(3, 3), stride=(1, 1), padding=(1, 1))
              (1): BatchNorm2d(512, eps=1e-05, momentum=0.1, affine=True, track_running_stats=True)
              (2): Identity()
            )
          )
        )
        (shortcut): Identity()
      )
    )
  )
  (img_attn): CrossAttention(
    (q_proj): Linear(in_features=512, out_features=512, bias=False)
    (k_proj): Linear(in_features=512, out_features=512, bias=False)
    (v_proj): Linear(in_features=512, out_features=512, bias=False)
    (o_proj): Linear(in_features=512, out_features=768, bias=False)
  )
  (text_encoder): Retriever(
    (token_embedding): Embedding(32000, 768)
    (layers): ModuleList(
      (0-11): 12 x DecoderLayer(
        (ln_1): RMSNorm()
        (attn): Attention(
          (q_proj): Linear(in_features=768, out_features=768, bias=False)
          (k_proj): Linear(in_features=768, out_features=768, bias=False)
          (v_proj): Linear(in_features=768, out_features=768, bias=False)
          (o_proj): Linear(in_features=768, out_features=768, bias=False)
          (rotary_emb): RotaryEmbedding()
        )
        (ln_2): RMSNorm()
        (mlp): MLP(
          (gate_proj): Linear(in_features=768, out_features=2058, bias=False)
          (up_proj): Linear(in_features=768, out_features=2058, bias=False)
          (down_proj): Linear(in_features=2058, out_features=768, bias=False)
        )
      )
    )
    (norm): RMSNorm()
  )
)

total_params: 122.82M, text_params: 109.81M, image_params: 11.18M, other_params: 1.83M
epoch: 0, lr: 0.0006000, device: cuda:0
step 100, loss 0.54, consume 135.62s
step 200, loss 0.39, consume 120.44s
step 300, loss 0.36, consume 119.27s
step 400, loss 0.33, consume 120.50s
step 500, loss 0.32, consume 119.18s
…
