…
_medium()
	batch_size: 48
	beta1: 0.9
	beta2: 0.95
	gpu_num: 3
	grad_clip: 1.0
	gradient_accumulation_steps: 1
	hidden_size: 768
	img_hidden_size: 2048
	img_num_head: 32
	img_size: 336
	learning_rate: 0.0003
	lr_decay_iters: 9000
	max_iters: 10000
	min_lr: 6e-06
	num_epoch: 12
	num_heads: 12
	num_layers: 12
	res_channels: [64, 256, 512, 1024, 2048]
	res_layers: [3, 4, 6, 3]
	sequence_length: 25
	spacial_dim: 11
	vision: resnet50_v15
	vocab_size: 32000
	warmup_iters: 800
	weight_decay: 0.1

CLIP(
  (image_encoder): ResNetV15(
    (conv1): Conv_Batch_Active(
      (block): Sequential(
        (0): Conv2d(3, 64, kernel_size=(7, 7), stride=(2, 2), padding=(3, 3), bias=False)
        (1): BatchNorm2d(64, eps=1e-05, momentum=0.1, affine=True, track_running_stats=True)
        (2): ReLU(inplace=True)
      )
    )
    (conv2): Sequential(
      (0): MaxPool2d(kernel_size=3, stride=2, padding=1, dilation=1, ceil_mode=False)
      (1): Bottleneck(
        (block): Sequential(
          (0): Conv_Batch_Active(
            (block): Sequential(
              (0): Conv2d(64, 64, kernel_size=(1, 1), stride=(1, 1), bias=False)
              (1): BatchNorm2d(64, eps=1e-05, momentum=0.1, affine=True, track_running_stats=True)
              (2): ReLU(inplace=True)
            )
          )
          (1): Conv_Batch_Active(
            (block): Sequential(
              (0): Conv2d(64, 64, kernel_size=(3, 3), stride=(1, 1), padding=(1, 1), bias=False)
              (1): BatchNorm2d(64, eps=1e-05, momentum=0.1, affine=True, track_running_stats=True)
              (2): ReLU(inplace=True)
            )
          )
          (2): Conv_Batch_Active(
            (block): Sequential(
              (0): Conv2d(64, 256, kernel_size=(1, 1), stride=(1, 1), bias=False)
              (1): BatchNorm2d(256, eps=1e-05, momentum=0.1, affine=True, track_running_stats=True)
              (2): Identity()
            )
          )
        )
        (shortcut): Conv_Batch_Active(
          (block): Sequential(
            (0): Conv2d(64, 256, kernel_size=(1, 1), stride=(1, 1), bias=False)
            (1): BatchNorm2d(256, eps=1e-05, momentum=0.1, affine=True, track_running_stats=True)
            (2): Identity()
          )
        )
      )
      (2): Bottleneck(
        (block): Sequential(
          (0): Conv_Batch_Active(
            (block): Sequential(
              (0): Conv2d(256, 64, kernel_size=(1, 1), stride=(1, 1), bias=False)
              (1): BatchNorm2d(64, eps=1e-05, momentum=0.1, affine=True, track_running_stats=True)
              (2): ReLU(inplace=True)
            )
          )
          (1): Conv_Batch_Active(
            (block): Sequential(
              (0): Conv2d(64, 64, kernel_size=(3, 3), stride=(1, 1), padding=(1, 1), bias=False)
              (1): BatchNorm2d(64, eps=1e-05, momentum=0.1, affine=True, track_running_stats=True)
              (2): ReLU(inplace=True)
            )
          )
          (2): Conv_Batch_Active(
            (block): Sequential(
              (0): Conv2d(64, 256, kernel_size=(1, 1), stride=(1, 1), bias=False)
              (1): BatchNorm2d(256, eps=1e-05, momentum=0.1, affine=True, track_running_stats=True)
              (2): Identity()
            )
          )
        )
        (shortcut): Identity()
      )
      (3): Bottleneck(
        (block): Sequential(
          (0): Conv_Batch_Active(
            (block): Sequential(
              (0): Conv2d(256, 64, kernel_size=(1, 1), stride=(1, 1), bias=False)
              (1): BatchNorm2d(64, eps=1e-05, momentum=0.1, affine=True, track_running_stats=True)
              (2): ReLU(inplace=True)
            )
          )
          (1): Conv_Batch_Active(
            (block): Sequential(
              (0): Conv2d(64, 64, kernel_size=(3, 3), stride=(1, 1), padding=(1, 1), bias=False)
              (1): BatchNorm2d(64, eps=1e-05, momentum=0.1, affine=True, track_running_stats=True)
              (2): ReLU(inplace=True)
            )
          )
          (2): Conv_Batch_Active(
            (block): Sequential(
              (0): Conv2d(64, 256, kernel_size=(1, 1), stride=(1, 1), bias=False)
              (1): BatchNorm2d(256, eps=1e-05, momentum=0.1, affine=True, track_running_stats=True)
              (2): Identity()
            )
          )
        )
        (shortcut): Identity()
      )
    )
    (conv3): Sequential(
      (0): Bottleneck(
        (block): Sequential(
          (0): Conv_Batch_Active(
            (block): Sequential(
              (0): Conv2d(256, 128, kernel_size=(1, 1), stride=(1, 1), bias=False)
              (1): BatchNorm2d(128, eps=1e-05, momentum=0.1, affine=True, track_running_stats=True)
              (2): ReLU(inplace=True)
            )
          )
          (1): Conv_Batch_Active(
            (block): Sequential(
              (0): Conv2d(128, 128, kernel_size=(3, 3), stride=(2, 2), padding=(1, 1), bias=False)
              (1): BatchNorm2d(128, eps=1e-05, momentum=0.1, affine=True, track_running_stats=True)
              (2): ReLU(inplace=True)
            )
          )
          (2): Conv_Batch_Active(
            (block): Sequential(
              (0): Conv2d(128, 512, kernel_size=(1, 1), stride=(1, 1), bias=False)
              (1): BatchNorm2d(512, eps=1e-05, momentum=0.1, affine=True, track_running_stats=True)
              (2): Identity()
            )
          )
        )
        (shortcut): Conv_Batch_Active(
          (block): Sequential(
            (0): Conv2d(256, 512, kernel_size=(1, 1), stride=(2, 2), bias=False)
            (1): BatchNorm2d(512, eps=1e-05, momentum=0.1, affine=True, track_running_stats=True)
            (2): Identity()
          )
        )
      )
      (1): Bottleneck(
        (block): Sequential(
          (0): Conv_Batch_Active(
            (block): Sequential(
              (0): Conv2d(512, 128, kernel_size=(1, 1), stride=(1, 1), bias=False)
              (1): BatchNorm2d(128, eps=1e-05, momentum=0.1, affine=True, track_running_stats=True)
              (2): ReLU(inplace=True)
            )
          )
          (1): Conv_Batch_Active(
            (block): Sequential(
              (0): Conv2d(128, 128, kernel_size=(3, 3), stride=(1, 1), padding=(1, 1), bias=False)
              (1): BatchNorm2d(128, eps=1e-05, momentum=0.1, affine=True, track_running_stats=True)
              (2): ReLU(inplace=True)
            )
          )
          (2): Conv_Batch_Active(
            (block): Sequential(
              (0): Conv2d(128, 512, kernel_size=(1, 1), stride=(1, 1), bias=False)
              (1): BatchNorm2d(512, eps=1e-05, momentum=0.1, affine=True, track_running_stats=True)
              (2): Identity()
            )
          )
        )
        (shortcut): Identity()
      )
      (2): Bottleneck(
        (block): Sequential(
          (0): Conv_Batch_Active(
            (block): Sequential(
              (0): Conv2d(512, 128, kernel_size=(1, 1), stride=(1, 1), bias=False)
              (1): BatchNorm2d(128, eps=1e-05, momentum=0.1, affine=True, track_running_stats=True)
              (2): ReLU(inplace=True)
            )
          )
          (1): Conv_Batch_Active(
            (block): Sequential(
              (0): Conv2d(128, 128, kernel_size=(3, 3), stride=(1, 1), padding=(1, 1), bias=False)
              (1): BatchNorm2d(128, eps=1e-05, momentum=0.1, affine=True, track_running_stats=True)
              (2): ReLU(inplace=True)
            )
          )
          (2): Conv_Batch_Active(
            (block): Sequential(
              (0): Conv2d(128, 512, kernel_size=(1, 1), stride=(1, 1), bias=False)
              (1): BatchNorm2d(512, eps=1e-05, momentum=0.1, affine=True, track_running_stats=True)
              (2): Identity()
            )
          )
        )
        (shortcut): Identity()
      )
      (3): Bottleneck(
        (block): Sequential(
          (0): Conv_Batch_Active(
            (block): Sequential(
              (0): Conv2d(512, 128, kernel_size=(1, 1), stride=(1, 1), bias=False)
              (1): BatchNorm2d(128, eps=1e-05, momentum=0.1, affine=True, track_running_stats=True)
              (2): ReLU(inplace=True)
            )
          )
          (1): Conv_Batch_Active(
            (block): Sequential(
              (0): Conv2d(128, 128, kernel_size=(3, 3), stride=(1, 1), padding=(1, 1), bias=False)
              (1): BatchNorm2d(128, eps=1e-05, momentum=0.1, affine=True, track_running_stats=True)
              (2): ReLU(inplace=True)
            )
          )
          (2): Conv_Batch_Active(
            (block): Sequential(
              (0): Conv2d(128, 512, kernel_size=(1, 1), stride=(1, 1), bias=False)
              (1): BatchNorm2d(512, eps=1e-05, momentum=0.1, affine=True, track_running_stats=True)
              (2): Identity()
            )
          )
        )
        (shortcut): Identity()
      )
    )
    (conv4): Sequential(
      (0): Bottleneck(
        (block): Sequential(
          (0): Conv_Batch_Active(
            (block): Sequential(
              (0): Conv2d(512, 256, kernel_size=(1, 1), stride=(1, 1), bias=False)
              (1): BatchNorm2d(256, eps=1e-05, momentum=0.1, affine=True, track_running_stats=True)
              (2): ReLU(inplace=True)
            )
          )
          (1): Conv_Batch_Active(
            (block): Sequential(
              (0): Conv2d(256, 256, kernel_size=(3, 3), stride=(2, 2), padding=(1, 1), bias=False)
              (1): BatchNorm2d(256, eps=1e-05, momentum=0.1, affine=True, track_running_stats=True)
              (2): ReLU(inplace=True)
            )
          )
          (2): Conv_Batch_Active(
            (block): Sequential(
              (0): Conv2d(256, 1024, kernel_size=(1, 1), stride=(1, 1), bias=False)
              (1): BatchNorm2d(1024, eps=1e-05, momentum=0.1, affine=True, track_running_stats=True)
              (2): Identity()
            )
          )
        )
        (shortcut): Conv_Batch_Active(
          (block): Sequential(
            (0): Conv2d(512, 1024, kernel_size=(1, 1), stride=(2, 2), bias=False)
            (1): BatchNorm2d(1024, eps=1e-05, momentum=0.1, affine=True, track_running_stats=True)
            (2): Identity()
          )
        )
      )
      (1): Bottleneck(
        (block): Sequential(
          (0): Conv_Batch_Active(
            (block): Sequential(
              (0): Conv2d(1024, 256, kernel_size=(1, 1), stride=(1, 1), bias=False)
              (1): BatchNorm2d(256, eps=1e-05, momentum=0.1, affine=True, track_running_stats=True)
              (2): ReLU(inplace=True)
            )
          )
          (1): Conv_Batch_Active(
            (block): Sequential(
              (0): Conv2d(256, 256, kernel_size=(3, 3), stride=(1, 1), padding=(1, 1), bias=False)
              (1): BatchNorm2d(256, eps=1e-05, momentum=0.1, affine=True, track_running_stats=True)
              (2): ReLU(inplace=True)
            )
          )
          (2): Conv_Batch_Active(
            (block): Sequential(
              (0): Conv2d(256, 1024, kernel_size=(1, 1), stride=(1, 1), bias=False)
              (1): BatchNorm2d(1024, eps=1e-05, momentum=0.1, affine=True, track_running_stats=True)
              (2): Identity()
            )
          )
        )
        (shortcut): Identity()
      )
      (2): Bottleneck(
        (block): Sequential(
          (0): Conv_Batch_Active(
            (block): Sequential(
              (0): Conv2d(1024, 256, kernel_size=(1, 1), stride=(1, 1), bias=False)
              (1): BatchNorm2d(256, eps=1e-05, momentum=0.1, affine=True, track_running_stats=True)
              (2): ReLU(inplace=True)
            )
          )
          (1): Conv_Batch_Active(
            (block): Sequential(
              (0): Conv2d(256, 256, kernel_size=(3, 3), stride=(1, 1), padding=(1, 1), bias=False)
              (1): BatchNorm2d(256, eps=1e-05, momentum=0.1, affine=True, track_running_stats=True)
              (2): ReLU(inplace=True)
            )
          )
          (2): Conv_Batch_Active(
            (block): Sequential(
              (0): Conv2d(256, 1024, kernel_size=(1, 1), stride=(1, 1), bias=False)
              (1): BatchNorm2d(1024, eps=1e-05, momentum=0.1, affine=True, track_running_stats=True)
              (2): Identity()
            )
          )
        )
        (shortcut): Identity()
      )
      (3): Bottleneck(
        (block): Sequential(
          (0): Conv_Batch_Active(
            (block): Sequential(
              (0): Conv2d(1024, 256, kernel_size=(1, 1), stride=(1, 1), bias=False)
              (1): BatchNorm2d(256, eps=1e-05, momentum=0.1, affine=True, track_running_stats=True)
              (2): ReLU(inplace=True)
            )
          )
          (1): Conv_Batch_Active(
            (block): Sequential(
              (0): Conv2d(256, 256, kernel_size=(3, 3), stride=(1, 1), padding=(1, 1), bias=False)
              (1): BatchNorm2d(256, eps=1e-05, momentum=0.1, affine=True, track_running_stats=True)
              (2): ReLU(inplace=True)
            )
          )
          (2): Conv_Batch_Active(
            (block): Sequential(
              (0): Conv2d(256, 1024, kernel_size=(1, 1), stride=(1, 1), bias=False)
              (1): BatchNorm2d(1024, eps=1e-05, momentum=0.1, affine=True, track_running_stats=True)
              (2): Identity()
            )
          )
        )
        (shortcut): Identity()
      )
      (4): Bottleneck(
        (block): Sequential(
          (0): Conv_Batch_Active(
            (block): Sequential(
              (0): Conv2d(1024, 256, kernel_size=(1, 1), stride=(1, 1), bias=False)
              (1): BatchNorm2d(256, eps=1e-05, momentum=0.1, affine=True, track_running_stats=True)
              (2): ReLU(inplace=True)
            )
          )
          (1): Conv_Batch_Active(
            (block): Sequential(
              (0): Conv2d(256, 256, kernel_size=(3, 3), stride=(1, 1), padding=(1, 1), bias=False)
              (1): BatchNorm2d(256, eps=1e-05, momentum=0.1, affine=True, track_running_stats=True)
              (2): ReLU(inplace=True)
            )
          )
          (2): Conv_Batch_Active(
            (block): Sequential(
              (0): Conv2d(256, 1024, kernel_size=(1, 1), stride=(1, 1), bias=False)
              (1): BatchNorm2d(1024, eps=1e-05, momentum=0.1, affine=True, track_running_stats=True)
              (2): Identity()
            )
          )
        )
        (shortcut): Identity()
      )
      (5): Bottleneck(
        (block): Sequential(
          (0): Conv_Batch_Active(
            (block): Sequential(
              (0): Conv2d(1024, 256, kernel_size=(1, 1), stride=(1, 1), bias=False)
              (1): BatchNorm2d(256, eps=1e-05, momentum=0.1, affine=True, track_running_stats=True)
              (2): ReLU(inplace=True)
            )
          )
          (1): Conv_Batch_Active(
            (block): Sequential(
              (0): Conv2d(256, 256, kernel_size=(3, 3), stride=(1, 1), padding=(1, 1), bias=False)
              (1): BatchNorm2d(256, eps=1e-05, momentum=0.1, affine=True, track_running_stats=True)
              (2): ReLU(inplace=True)
            )
          )
          (2): Conv_Batch_Active(
            (block): Sequential(
              (0): Conv2d(256, 1024, kernel_size=(1, 1), stride=(1, 1), bias=False)
              (1): BatchNorm2d(1024, eps=1e-05, momentum=0.1, affine=True, track_running_stats=True)
              (2): Identity()
            )
          )
        )
        (shortcut): Identity()
      )
    )
    (conv5): Sequential(
      (0): Bottleneck(
        (block): Sequential(
          (0): Conv_Batch_Active(
            (block): Sequential(
              (0): Conv2d(1024, 512, kernel_size=(1, 1), stride=(1, 1), bias=False)
              (1): BatchNorm2d(512, eps=1e-05, momentum=0.1, affine=True, track_running_stats=True)
              (2): ReLU(inplace=True)
            )
          )
          (1): Conv_Batch_Active(
            (block): Sequential(
              (0): Conv2d(512, 512, kernel_size=(3, 3), stride=(2, 2), padding=(1, 1), bias=False)
              (1): BatchNorm2d(512, eps=1e-05, momentum=0.1, affine=True, track_running_stats=True)
              (2): ReLU(inplace=True)
            )
          )
          (2): Conv_Batch_Active(
            (block): Sequential(
              (0): Conv2d(512, 2048, kernel_size=(1, 1), stride=(1, 1), bias=False)
              (1): BatchNorm2d(2048, eps=1e-05, momentum=0.1, affine=True, track_running_stats=True)
              (2): Identity()
            )
          )
        )
        (shortcut): Conv_Batch_Active(
          (block): Sequential(
            (0): Conv2d(1024, 2048, kernel_size=(1, 1), stride=(2, 2), bias=False)
            (1): BatchNorm2d(2048, eps=1e-05, momentum=0.1, affine=True, track_running_stats=True)
            (2): Identity()
          )
        )
      )
      (1): Bottleneck(
        (block): Sequential(
          (0): Conv_Batch_Active(
            (block): Sequential(
              (0): Conv2d(2048, 512, kernel_size=(1, 1), stride=(1, 1), bias=False)
              (1): BatchNorm2d(512, eps=1e-05, momentum=0.1, affine=True, track_running_stats=True)
              (2): ReLU(inplace=True)
            )
          )
          (1): Conv_Batch_Active(
            (block): Sequential(
              (0): Conv2d(512, 512, kernel_size=(3, 3), stride=(1, 1), padding=(1, 1), bias=False)
              (1): BatchNorm2d(512, eps=1e-05, momentum=0.1, affine=True, track_running_stats=True)
              (2): ReLU(inplace=True)
            )
          )
          (2): Conv_Batch_Active(
            (block): Sequential(
              (0): Conv2d(512, 2048, kernel_size=(1, 1), stride=(1, 1), bias=False)
              (1): BatchNorm2d(2048, eps=1e-05, momentum=0.1, affine=True, track_running_stats=True)
              (2): Identity()
            )
          )
        )
        (shortcut): Identity()
      )
      (2): Bottleneck(
        (block): Sequential(
          (0): Conv_Batch_Active(
            (block): Sequential(
              (0): Conv2d(2048, 512, kernel_size=(1, 1), stride=(1, 1), bias=False)
              (1): BatchNorm2d(512, eps=1e-05, momentum=0.1, affine=True, track_running_stats=True)
              (2): ReLU(inplace=True)
            )
          )
          (1): Conv_Batch_Active(
            (block): Sequential(
              (0): Conv2d(512, 512, kernel_size=(3, 3), stride=(1, 1), padding=(1, 1), bias=False)
              (1): BatchNorm2d(512, eps=1e-05, momentum=0.1, affine=True, track_running_stats=True)
              (2): ReLU(inplace=True)
            )
          )
          (2): Conv_Batch_Active(
            (block): Sequential(
              (0): Conv2d(512, 2048, kernel_size=(1, 1), stride=(1, 1), bias=False)
              (1): BatchNorm2d(2048, eps=1e-05, momentum=0.1, affine=True, track_running_stats=True)
              (2): Identity()
            )
          )
        )
        (shortcut): Identity()
      )
    )
  )
  (img_attn): CrossAttention(
    (q_proj): Linear(in_features=2048, out_features=2048, bias=False)
    (k_proj): Linear(in_features=2048, out_features=2048, bias=False)
    (v_proj): Linear(in_features=2048, out_features=2048, bias=False)
    (o_proj): Linear(in_features=2048, out_features=768, bias=False)
  )
  (text_encoder): Retriever(
    (token_embedding): Embedding(32000, 768)
    (layers): ModuleList(
      (0-11): 12 x DecoderLayer(
        (ln_1): RMSNorm()
        (attn): Attention(
          (q_proj): Linear(in_features=768, out_features=768, bias=False)
          (k_proj): Linear(in_features=768, out_features=768, bias=False)
          (v_proj): Linear(in_features=768, out_features=768, bias=False)
          (o_proj): Linear(in_features=768, out_features=768, bias=False)
          (rotary_emb): RotaryEmbedding()
        )
        (ln_2): RMSNorm()
        (mlp): MLP(
          (gate_proj): Linear(in_features=768, out_features=2058, bias=False)
          (up_proj): Linear(in_features=768, out_features=2058, bias=False)
          (down_proj): Linear(in_features=2058, out_features=768, bias=False)
        )
      )
    )
    (norm): RMSNorm()
  )
)

total_params: 148.31M, text_params: 109.81M, image_params: 23.51M, other_params: 15.00M
total epoch: 12, sample nums: 118287, total iter_num: 9857
step 100, loss 0.802, lr: 0.0000371, consume 124.51s
step 200, loss 0.355, lr: 0.0000746, consume 108.00s
step 300, loss 0.225, lr: 0.0001121, consume 110.97s
…
